app/src/main/assets/sea.tflite (tflite, 148880 bytes, 10 tensors)

arith.constant f4 [32]
00000000: 90f9 3e3c c001 b9bb abb5 babb 920f 13bc
00000010: 9298 863c 1c99 933c cc96 efbb c528 703c
00000020: 32e6 6e3c 0e44 efbb 19f0 5dba 9ae1 0abc
00000030: bce1 35bb e7e9 313c bb94 863c 1a0d 7d3c
00000040: a18f e0bb a416 863c 754b 2038 4ca7 843c
00000050: 70c9 a43a 585c 03bc 1355 06bc 0815 8c3c
00000060: 4be3 2cbc da15 833c 86ef 8f3c 482b 8c3c
00000070: 3035 03bc 9da0 883c f3da 703c 6df8 51bc
0.01165618 -0.0056459606 -0.005697926 -0.00897588 0.016430173 0.018017344 -0.0073116776 0.014658158
0.01458125 -0.007301814 -0.00084662583 -0.008476639 -0.0027752956 0.010858989 0.016428342 0.015445018
-0.0068530594 0.016368218 3.8217247e-05 0.016193055 0.001257224 -0.008017622 -0.008198994 0.017099872
-0.010552238 0.01600163 0.017570268 0.017110482 -0.008008286 0.016678149 0.014700639 -0.012815577

arith.constant1 f4 [32]
00000000: 717e 52af e077 923c 76e6 113c 929b 02bc
00000010: 7fec b53b eca4 6f3c fdd7 8d3c ef3d a0bb
00000020: 86a0 8f3c 5b86 973c 2d3d 68bb a0bd 16bc
00000030: 54c3 973b 4e7f 35bc 9bec 8a3c 6f0f 35bc
00000040: d055 0fbc bf68 6fbb 8607 8d3c e33f 8f3c
00000050: f3c6 8a3b 430c 2dbc 448b 68bc 53fb 833c
00000060: fd07 e1bb 5cd4 323c 2087 8d3c c8c9 afbb
00000070: 12b5 e1bb 0d39 233b 1f21 863c 8b0f 963c
-1.914431e-10 0.017879426 0.008905044 -0.007971661 0.005551874 0.014626723 0.017314905 -0.0048901956
0.017532598 0.018496683 -0.0035436854 -0.009200484 0.004631439 -0.011077715 0.016958525 -0.011051043
-0.008748487 -0.003653094 0.017215502 0.017486518 0.0042351424 -0.010562005 -0.01419336 0.016111052
-0.0068674074 0.010914888 0.017276347 -0.0053646304 -0.0068880403 0.002490583 0.016373215 0.018317958

arith.constant2 f4 [32]
00000000: 9a04 993c afe5 76bb fc4e bd39 e304 fa3b
00000010: f75b 073c cfbd 4e3c 9d3c 9c3c 22e4 2b3c
00000020: b113 c23b 6c2c 363c 73b3 943c 82d5 8f3c
00000030: bf8b 3c3c f014 32bc 5714 8b3b 1e3c 233c
00000040: 5419 533c 538f 843c 4c59 e93b c9a4 143c
00000050: 65c9 b6bb 0513 963c f6ca b6bb 9795 953c
00000060: 2a79 0dbc 40b7 e9bb 8032 a73c f2f1 9b3c
00000070: f1b8 943c 3d08 933c a591 a53c cdab 133c
0.018678952 -0.0037673523 0.00036107737 0.007629977 0.008261672 0.012618496 0.019071871 0.010491403
0.0059227576 0.011118989 0.018151974 0.017557863 0.011507927 -0.01086925 0.004244368 0.0099630635
0.012884457 0.016181624 0.0071212407 0.009072491 -0.0055782073 0.018319616 -0.005578394 0.018259807
-0.008634845 -0.007132441 0.020409822 0.019036267 0.018154593 0.017948264 0.02021105 0.0090131285

arith.constant3 f4 [32, 3, 3, 32]
00000000: 50ca b93c 7a78 00bc b501 9e3d d379 bf3d
00000010: 7899 83bd 8e51 a43d 86fa 32bc 9c97 7fbd
00000020: 56af 26bc 8ec2 40bd 34be 75bc 47ef 2ebb
00000030: 3df4 00bd 6a0c 56bd 2ae7 a5bd bbcf 43bd
00000040: 7e0a 5d3b e21c dfbd 1f87 a43c 9a1b 82bd
00000050: 6eb4 973d 6dd4 67bd a097 8c3d d4d9 693b
00000060: 1cb7 9e3d fae2 573d f97a d13d a9ab 59bd
00000070: 6653 13bc 730b 0f3c c362 2cbd f06c 343c
00000080: 1825 333c 991b 25bd b9b5 9b3d 2c0d 2e3d
00000090: a1ea 6cbd 7b4e cf3c 3ed4 de3c afbb 5dbd
000000a0: 1702 f1bc 2d8a 8a3d a8b6 61bc 4c30 0a3d
000000b0: f56c 4cbd f53e 0abd 53fb 883d bf9c d6bc
000000c0: 1d63 92bd 53ae 693d 3e75 e33d 8dc5 55bc
000000d0: 20e0 14bd 8197 71bb bdb6 b93a 1701 ac3d
000000e0: 190d acbd 7bb2 16bd 0ee2 4b3d c6e1 b5bc
000000f0: a8da 5fbd 87bd 223d 73b8 d6bc 106d 0fbd
00000100: 482d 563d 587a c4bb 1ad5 a63c 981f db3d
00000110: 943f 983d 79c4 823d 96c9 d63d 562b 47bd
00000120: 9248 323d 8f5c e03c 5ece c53d 5dad 8f3d
00000130: 3696 a03d dfcc cabd 4f85 ae3d ca90 97bd
00000140: 70ae babd e4df c23d 937f e53d 6146 34bd
00000150: 167a 9b3d 9b2e e0bc 2d42 66bd c200 573d
00000160: 9a57 a2bd d0dd 643d 096f e43c 992e 083d
00000170: 83d4 c53d 1450 dc3d 01f1 6f3d 1b1f 99bd
00000180: 64e7 303d 67a0 e7ba 62b9 643d 710d a6bd
00000190: 3dae 713c 8410 c53d 0363 b3bd 636b 96bd
000001a0: 9dc5 81bc 88b7 8d3d b24e 6b3c 7f92 96bd
000001b0: 5009 b03c 5b85 9abd 2adc d93d d7bf c73d
000001c0: 51fd b83d 87ed 98bc 09b1 ad3d 09f9 963c
000001d0: f4d4 37bd 1ae0 abbd a87d 87bd b81e 443c
000001e0: b09c 563c f9b0 d53d 5f06 da3d eb87 363d
000001f0: c760 55bd 42e3 4cbd d023 953d 1f30 0d3d
00000200: c4d7 ba3d 65a8 a13d 100b 8dbd 14c8 b2bd
00000210: 321a 863d 9342 a13d 18c2 67bd 7233 c63b
00000220: 221b cd3d 0479 a73c 42c2 5bbd 6694 9f3d
00000230: 7965 cdbc 7f33 d6bb ec2b 8e3d 0982 593d
00000240: 8f6f 533d 81f0 7e3d 4cac 86bc 7102 343b
00000250: bca3 5b3d 4a93 d23c f2d8 0fbd 1be5 e13d
00000260: 7216 7fbd e392 f9bc 0c78 2abd 1481 33bd
00000270: 8eeb babd a83e a1bd 236d b73d eac9 ad3d
00000280: 9c6a 9f3d 8fc4 e23d 227f 5abd a8d6 55bd
00000290: 0ee6 303d cc5f bc3c 8c46 b93c ba0f e9bc
000002a0: 1b6e 8dbd 4fa1 9b3d 9284 0bbc 213b fd3c
000002b0: e248 aabd 5f22 493d b3ba 15bd b62e a73c
000002c0: 730a 273d 8a36 a03b 4292 393d 2b30 543d
000002d0: 767a 6dbd 41b8 b5bd d947 993d cfbf b33d
000002e0: fad1 913b 1a05 cf3d edcf 17bd d67c bcbd
000002f0: 6f16 c33d c608 48bd f642 6abd 80cc 593b
00000300: e0aa 633d 8beb c13d 98d6 ba3c 68aa 673d
00000310: 8670 2cbc c83c 21bd 9def cd3d 96c6 893c
00000320: 6a9e f23b c166 bf3d ea5f 45bd d962 23bd
00000330: 1c36 efbc 64f7 a7bd 127b de3d 68ad e63c
00000340: 1055 ca3d 585a 53bd a3a0 96bd 351a 5b3d
00000350: 5e7a b1bd b752 643d a559 8ebd cf2e f8b8
00000360: c134 7cbd 6bd0 83bd 35db 6d3d 4969 92bc
00000370: 13f6 713c aaa0 33bd 1384 8dbd 6fbe 9fbd
00000380: e8d6 3d3d ff67 04bc 8644 9ebd 66f5 513d
00000390: 9c8d a73d 2d99 ec3a 48f1 c33d ab9c 7bbc
000003a0: a32d 91bd 87b9 0abc d17e 9abd 8ec7 4e3d
000003b0: 7a85 9a3d 9880 563d fc8c e9bb bfe8 7f3d
000003c0: 7c26 03bd a596 c8bd 8811 903d e6b7 afbd
000003d0: 29d2 8c3d 84ca c2bc a75a 3bbd 1318 9bbd
000003e0: 7a6e 793d 8fe6 39bd 2c8b 943d 4df7 ac3d
000003f0: 9ff3 7cbb 26b2 a8bd 77de d23d 2931 073d
0.022679478 -0.007841224 0.07715169 0.09349408 -0.06425756 0.08023368 -0.010923987 -0.062400445
-0.010173639 -0.04706054 -0.014998961 -0.0026692913 -0.031482924 -0.052257933 -0.08100732 -0.04780553
0.0033728178 -0.10894181 0.020083962 -0.06352921 0.07407461 -0.05659907 0.06864858 0.0035682814
0.07749769 0.052706696 0.10228533 -0.053142224 -0.008992052 0.008730757 -0.042086374 0.011012301
0.010934137 -0.040309522 0.0760302 0.04249303 -0.057840947 0.025305977 0.027200814 -0.054134067
-0.029419942 0.06764636 -0.013776459 0.033737466 -0.049908597 -0.033751447 0.06688561 -0.02619779
-0.071478106 0.057051014 0.111063465 -0.013047588 -0.036346555 -0.0036863985 0.001416884 0.08398645
-0.08400936 -0.036791306 0.04977613 -0.022202384 -0.054651886 0.03973153 -0.026211 -0.03501612
0.052289277 -0.00599603 0.020365287 0.106993854 0.074340016 0.063851304 0.10487668 -0.048625313
0.04352624 0.027387885 0.09658502 0.07015488 0.078411505 -0.09902357 0.0852152 -0.07400663
-0.091153026 0.0951536 0.112059735 -0.04401243 0.075916454 -0.027365973 -0.056215454 0.052490957
-0.07926865 0.0558756 0.027884977 0.033247564 0.09659674 0.10757461 0.05857945 -0.07476636
0.04318942 -0.0017671705 0.055840857 -0.081080325 0.014751014 0.09622291 -0.08759119 -0.07344701
-0.0158413 0.069197714 0.014362024 -0.07352161 0.021488816 -0.07544967 0.10637696 0.097533874
0.09032691 -0.01866795 0.084810324 0.018429296 -0.044880822 -0.08392353 -0.06615764 0.011970215
0.013098881 0.104341455 0.106457464 0.044563215 -0.052094247 -0.050021417 0.07282221 0.03446972
0.09123185 0.07893447 -0.06886876 -0.08729568 0.06547965 0.07874026 -0.056581587 0.006048613
0.10014941 0.020443447 -0.053652056 0.07791977 -0.0250728 -0.0065369005 0.06941971 0.053102527
0.051620062 0.06224108 -0.01643958 0.0027467276 0.053622946 0.025704999 -0.035119005 0.110300265
-0.062277265 -0.030465549 -0.041618392 -0.04382427 -0.0912696 -0.07873279 0.08956363 0.08485778
0.07784006 0.11072647 -0.0533439 -0.052206665 0.043188147 0.022994898 0.022616647 -0.028449882
-0.069057666 0.075991265 -0.008515494 0.030911984 -0.083146825 0.049105044 -0.036555003 0.020408016
0.04078145 0.004889314 0.045305498 0.05180375 -0.057978116 -0.08873034 0.07484407 0.08776819
0.00445008 0.10108395 -0.037063528 -0.09203498 0.09525763 -0.048836492 -0.057192765 0.0033233464
0.05558288 0.094687544 0.022807404 0.056558996 -0.010524875 -0.039364606 0.10055468 0.016818326
0.0074041383 0.093457706 -0.048187174 -0.03988919 -0.029200606 -0.08201483 0.108633175 0.028158858
0.09879506 -0.05159983 -0.07354858 0.05349179 -0.08665918 0.055742946 -0.06950692 -0.0001183428
-0.061573748 -0.06436237 0.05807038 -0.01787247 0.014768141 -0.043854393 -0.06909957 -0.07799994
0.04634753 -0.008081435 -0.077279136 0.05125942 0.08181307 0.0018051021 0.09567505 -0.015357177
-0.07088783 -0.008467085 -0.075437196 0.05048328 0.0754499 0.05236873 -0.0071274024 0.062477823
-0.032019123 -0.09794358 0.07034594 -0.08579998 0.06876022 -0.023778208 -0.04574075 -0.07572951
0.060896374 -0.045385893 0.072531074 0.084456064 -0.0038597358 -0.08237104 0.10296338 0.033005867

arith.constant4 f4 [32, 3, 3, 32]
00000000: 143b fbbc 9ca3 c83d 205c dfbc 58f8 593d
00000010: 4c80 8f3d 908a 623d 04e7 cebd 832c a9bd
00000020: ce5b cd3d 488f 72bc fc39 0c3d a687 bcbd
00000030: ac53 513d 76af 1ebd 6a6b 42bd e2b9 9bbd
00000040: d20b ca3d f97b 79bd f87f 733d 7e5e c13d
00000050: e8e7 333c 10b3 cfbd b943 59bd 9aa0 c2bd
00000060: f073 fd3c 6898 10bd bc5c a9bd 197f 99bd
00000070: 201c 84bb 127d 02bd 70d1 46bd 0e0c 20bd
00000080: 3709 bebd b527 b9bd 10bf f93c e707 ccbd
00000090: a89e 84bd bf5c cabd 75f4 4bbd 4ec1 a03d
000000a0: cce4 c83d b806 4abc a066 45bb 6ca1 85bc
000000b0: 6c3c 783d a002 aebc dcc8 ad3d 4458 aa3c
000000c0: c097 963a 08de 5ebc f751 b3bd 8426 923d
000000d0: 0cf6 cdbd 661e aabd f4a6 173d 653b b8bd
000000e0: dbea 7cbd 6075 073b b032 283d 34ba 1ebd
000000f0: 5a75 873d c039 103d 204e 6e3d 077a a4bd
00000100: 4e7f 21bd ce6f ab3d a4ab 553d 50d9 05bc
00000110: 58cc 2cbc c7b7 44bd b62a 8fbd 7312 cdbd
00000120: 30d4 86bb 00f2 b03c 0c69 8abc 7233 9e3d
00000130: b032 8e3d b4f3 b53c 78a1 d83c aca8 2f3d
00000140: 7cc3 97bd e46d 14bd 3b80 5fbd 5223 7dbd
00000150: ca1e 3abd 8497 bfbc 5089 7c3d 8e01 bf3d
00000160: e839 45bc 831a bbbd 5874 e73c ea1c b63d
00000170: 9cac a93d 321d c7bd 901c cc3c 3d5e c1bd
00000180: 095b bcbd 2806 b33d 844b c3bd 24d4 59bd
00000190: 6cbd b43d 1a11 b53d d8cd 703d 3c58 633d
000001a0: f81f 233d 2881 093d 14eb 213d c4cf b93d
000001b0: 085c b5bc 761c af3d 50f3 1c3d b043 cdbc
000001c0: 180e 103d b4dd c4bd eaf8 b7bd 9c49 13bd
000001d0: e8fd c0bc a027 f4bb f220 bf3d 88f7 573d
000001e0: f5c3 c9bd ff79 47bd 4a91 bd3d 81c8 c8bd
000001f0: e4e7 89bc 4020 dc3c d4f8 653d 5aeb 14bd
00000200: 4847 283d 5510 a8bd 1449 873c f83a 183d
00000210: d7b9 b3bd 6055 ba3b a847 d63c 0b70 c2bd
00000220: 186f 283c fc78 013d d02e 5d3c 34b7 a4bd
00000230: 78f1 db3c dc41 cb3d 2a1e 8f3d f140 cbbd
00000240: 9003 173d 48fa ba3d 2540 49bd a060 a4bb
00000250: 526f aebd e03e 88bd 68eb ca3d 698a 68bd
00000260: fe4f 7fbd b0c2 113d 8c6f 673d 0889 cb3c
00000270: 4428 403d a896 793d a8f7 bfbd 0e5f ab3d
00000280: b6e2 3ebd 9e7a 873d 10ee 9a3d 0a96 b4bd
00000290: 1dd2 5ebd 6011 0abb 64ba a5bc a0da 7abb
000002a0: 5014 f93c b136 a0bd 00d4 7fbb 3614 83bd
000002b0: b0f5 493d d035 c73c fdd2 b6bd 46ab a83d
000002c0: ac74 95bc c892 663c 9ccc c0bc 80cf c83a
000002d0: 28f4 0f3c 3ecc cc3d 50f9 5c3d d003 aebd
000002e0: 6839 74bc 842b 703d ec58 76bd 30fd 95bc
000002f0: e473 1abd e870 523d 6058 fcbb fa4f 8e3d
00000300: 9037 fcbb 36bc 85bd 80f2 b6bd 3a70 57bd
00000310: 00c8 963a db10 b5bd cc8c f3bc c28e 863d
00000320: 8478 94bd 2479 1ebd 48f8 ea3c 4cef 833c
00000330: b4d7 ca3d e033 253d a4c4 533d 74ee c93d
00000340: 0985 aebd 2e24 25bd 0056 873c f839 01bd
00000350: 3ed9 2cbd f076 c1bd 68f0 b63c 66b7 b13d
00000360: 5c50 d0bc 3568 6cbd 5884 5c3d e072 16bc
00000370: 9061 b83c 6419 cdbd c3a4 86bd 20d9 4abb
00000380: f039 5f3d 903f 84bd 8f15 6ebd 583a c93d
00000390: a002 cb3c 48fc eb3c 0056 313d e14a b1bd
000003a0: 6e98 883d 5210 8d3d 9024 bbbd 4097 d8bb
000003b0: 8005 333b 4d69 b3bd 389f 0f3d 782f 97bc
000003c0: 0891 ae3d 1133 cabd 30d1 a93c a229 88bd
000003d0: 7497 a2bd 88a6 9e3c 03d7 b5bd a8c1 62bc
000003e0: be51 b1bd bd9c b3bd cea0 9a3d 3477 ab3d
000003f0: d860 f03c 683f 36bd f54f b1bd 1c53 ccbd
-0.03066782 0.09796831 -0.027265608 0.053215355 0.070068926 0.055307925 -0.101026565 -0.08260443
0.10027276 -0.014804669 0.034234986 -0.092055604 0.051105186 -0.03874155 -0.04746572 -0.07603814
0.09865536 -0.060909245 0.059448212 0.09441851 0.010980584 -0.10141575 -0.0530431 -0.095032886
0.030939072 -0.035301596 -0.08269641 -0.07494945 -0.004031673 -0.031857558 -0.04853958 -0.039073996
-0.09279101 -0.09040777 0.030486614 -0.09962445 -0.06475574 -0.09880971 -0.04979368 0.0784937
0.098092645 -0.012330703 -0.0030120984 -0.016312324 0.060604498 -0.021241486 0.084855765 0.020794041
0.0011489317 -0.013602741 -0.08755868 0.071362525 -0.10056695 -0.08306579 0.037024453 -0.089957036
-0.061747413 0.0020669326 0.041063964 -0.038751796 0.0661418 0.035211325 0.058179975 -0.08031087
-0.039428048 0.083709344 0.052165642 -0.008169487 -0.010546766 -0.048026826 -0.06990568 -0.100132845
-0.00411465 0.02159977 -0.016895793 0.07724656 0.069432616 0.022210933 0.026444182 0.042885467
-0.074103326 -0.036237612 -0.05456565 -0.061801262 -0.04543952 -0.023387678 0.06165439 0.093264684
-0.012037732 -0.09135916 0.02825372 0.08892234 0.08284876 -0.097223654 0.024915963 -0.09441803
-0.09197051 0.087414086 -0.09535888 -0.05318083 0.08825192 0.088411525 0.058790058 0.05550407
0.03982541 0.03357044 0.03953083 0.09072831 -0.02213861 0.0855035 0.03831798 -0.02505669
0.03516969 -0.09612599 -0.089830235 -0.03595887 -0.023558572 -0.0074510127 0.09332456 0.0527263
-0.09851829 -0.04870033 0.09256227 -0.09803868 -0.016834207 0.026870847 0.056145504 -0.03635726
0.041083604 -0.0820624 0.016514339 0.037165612 -0.087756805 0.005686447 0.026157215 -0.09494027
0.010280393 0.03160952 0.0134999305 -0.08042756 0.02684854 0.09924671 0.06988175 -0.09924496
0.03686863 0.091297686 -0.04913344 -0.0050164014 -0.085173264 -0.066526175 0.099081814 -0.056772623
-0.062332146 0.03558606 0.056502864 0.024845615 0.0469134 0.060934693 -0.093734086 0.083677396
-0.046602927 0.06615184 0.07564938 -0.0881768 -0.0543996 -0.0021067485 -0.02023048 -0.0038277283
0.030405194 -0.078229316 -0.0039036274 -0.06400339 0.04930657 0.024317652 -0.089269616 0.08235793
-0.01824411 0.014073081 -0.023535065 0.0015320629 0.008786239 0.099998936 0.0539487 -0.08496821
-0.014906265 0.05863525 -0.060143396 -0.018309206 -0.03770818 0.051377207 -0.007700965 0.06948848
-0.0076970533 -0.06530039 -0.08932972 -0.052597262 0.0011503696 -0.088411056 -0.029730223 0.06570198
-0.07249549 -0.038689747 0.028682843 0.016105317 0.09904423 0.040332675 0.051701203 0.098599344
-0.08521468 -0.040317707 0.0165205 -0.031549424 -0.042199366 -0.09446514 0.022331432 0.086775586
-0.025428943 -0.057716567 0.05383715 -0.009182662 0.022507459 -0.100146085 -0.065743946 -0.003095217
0.054498613 -0.06457436 -0.05812603 0.09825581 0.024781525 0.02880682 0.043294907 -0.0865686
0.06669699 0.068878785 -0.09137833 -0.0066098273 0.002731651 -0.08760319 0.035063952 -0.018455252
0.08523756 -0.098730214 0.020729631 -0.06648566 -0.07939044 0.019366518 -0.08878901 -0.013840117
-0.08658169 -0.0877013 0.07550202 0.083723456 0.029343054 -0.044494063 -0.08657829 -0.09976789

arith.constant5 f4 [3, 128]
00000000: 847d da3d a2a2 1cbe 747e 99bd e0e7 073c
00000010: aaf4 453e 9e36 3a3d f56e 3c3e b715 583e
00000020: 752d febd 3ebd e1bd 57d4 8cbc f96e 383e
00000030: 7647 3dbe 6bc3 fe3d c48b 033e 177d afbc
00000040: a799 803d 085e 313d 9260 42be bcab 9fbd
00000050: 3bf6 bbbd 5c9c 443e 703c e93c 328c 2fbe
00000060: e4a9 2ebe ef3f 01bd 0dbf b4bc 188e 2ebe
00000070: b89a 45be d8c6 9a3d f98d af3d 96cd 14be
00000080: 46e6 84bc 13f9 773e 4b9e 143e fa3d 353e
00000090: 6cac c6b8 c9f7 30bd ccf4 023d 240a 233e
000000a0: 14bc 4ebe 4029 2a3c 2089 4a3c b07f d0bc
000000b0: faec 12be 9545 183e a154 483e 6fb6 0dbe
000000c0: 7dfb 12bd 90cb e7bc 1e01 e33d 39aa 08be
000000d0: 0fe1 883c ce43 0dbe eaf5 993d 4a1b e9bd
000000e0: 1432 7cbd 08a3 e8bd 6b25 78bd 2be8 653e
000000f0: 61ec 2ebd f1b1 75bd b0f4 f4bd c9bf 62bd
00000100: 0019 463e f45e 22be fc8f 4dbe 0050 343e
00000110: 2d55 3bbe 3bbf d1bd 8613 583d 9e9a 12be
00000120: 9cf2 4abe b49a ed3d d2b3 2abe 9133 58bd
00000130: 1aea 523e 986f f3bd da17 cc3d bd04 ce3c
00000140: 2427 d43d d65d b43d b900 30bd ad4b 46be
00000150: e742 e5bd 3011 8abd 2dec 0c3b ea8a d53d
00000160: a009 6d3e 524a da3b 9136 503e 60f4 4dbd
00000170: 982c 203e 6ca2 363d 5666 e43c 163b 263e
00000180: 3adb 2dbe bcca 623c d012 26be c1c3 adbd
00000190: 7793 eebd 4181 7c3d ecde 693d 7cf1 50be
000001a0: 3952 4dbe ce5e 9fbd 99bd a43c 9217 32bd
000001b0: f104 9ab9 9da4 373e 63ec 353e 7993 50be
000001c0: 5249 4ebe 8452 41bd 4e3e 61bd 148d 14be
000001d0: 1c71 f83d 3410 493d 7f83 423e facb 46be
000001e0: d45a 03bd a8c6 963d a7e2 fcbc 8789 13be
000001f0: 7029 61bd 1813 943d bb2a 403e ca11 5d3e
00000200: 7223 fa39 f837 11be a0c9 9b3d 912f 02bc
00000210: 69f7 1d3e 1fc3 c43d 5c9e 113e 5779 12be
00000220: 4ed8 483e 03df fabd 6afc 8a3d 2696 8bbc
00000230: 9e04 00be 9213 3e3e e879 e2bd 3074 b6bc
00000240: 2b63 253e 710f 3dbe 57a4 413e 0424 65be
00000250: 45ee 05be cd51 353e db37 d7bd a5fc 633b
00000260: 6345 423e 4648 53be 79a6 4fbe c043 18be
00000270: 744f 58be 86cf e4bd 813c 7bbd 8067 1f3d
00000280: 37a1 42be 7bba efbd 3635 58be ebf4 e1bd
00000290: 779d 403e 1a1c f1bc d6d8 90bd f796 fabd
000002a0: 421b 483e 50fa 303c 1a05 c83d f0f8 f7bc
000002b0: 8241 f9bc 2d49 12bc 7742 4ebd c050 5f3c
000002c0: 54f8 2dbd 59d4 4f3e 8064 813b dfdd 863d
000002d0: 1054 5fbe aa7e a1bd dcf4 333e 54a5 b0bb
000002e0: 522f a43d 4d1c 5a3e de8a 023e 98de 37be
000002f0: 1361 8c3d 56ee 55be e9f5 b4bd d5cd 4dbe
00000300: 6b32 bfbd 780a 50be e4f1 f23d e98a 3bbe
00000310: 1a75 e63d 0196 9a3b 6cbd 01bd a066 26be
00000320: ec6c b43c a093 103d 5937 58be e193 64be
00000330: f925 04be b18b 0f3e 4906 273e 18f8 733b
00000340: 9365 f33d 0c00 493e 561e ddbd f123 fcbd
00000350: 1e03 343e 5a44 f1bd 5ba7 27bc 9856 c5bc
00000360: 3a0e c1bd 80a4 5bbe c35b 9c3d 9f70 c0bd
00000370: c6ab 2d3d c0fe 0e3d c917 34be 8d7f fa3c
00000380: dd03 aebd 215c 4c3e 60aa 2dbd 91a6 083d
00000390: 803c 57be 5747 52be fc21 2fbd f76b b23c
000003a0: 8c26 cd3d 3528 39be 516f b4bb e40c 443e
000003b0: e332 c7bd be0b ac3d b617 29be cc49 d8bc
000003c0: 8238 493e 6a4a 61be 4d0f 5f3d e6d2 e03d
000003d0: 4126 89bd 983d 0dbd eac3 04be 9026 403e
000003e0: bc0c 09bd 421d 07be f0f3 4cbe 9dde bd3d
000003f0: 5a4a 59be d4ad 153d 51de 97bd bdc3 83bd
0.106684715 -0.15296414 -0.07494822 0.008295029 0.19331613 0.045462243 0.18401702 0.21102034
-0.12411014 -0.11022423 -0.017191095 0.18011083 -0.18484291 0.12439617 0.12846285 -0.021421952
0.06279307 0.043302566 -0.18982151 -0.077964276 -0.09177824 0.19200271 0.028471202 -0.17143324
-0.17056996 -0.031555112 -0.022063756 -0.17046392 -0.19297302 0.07557458 0.08572001 -0.1453155
-0.016223084 0.24216108 0.14513509 0.17699423 -9.473492e-05 -0.043205056 0.031971738 0.15921837
-0.20188934 0.010385811 0.012361795 -0.025451511 -0.14348212 0.14870293 0.19563533 -0.13839124
-0.03588437 -0.028295308 0.110841975 -0.13346185 0.016708879 -0.13795397 0.075176075 -0.11382158
-0.061571196 -0.11359221 -0.06058256 0.22451846 -0.042705897 -0.05998415 -0.11960733 -0.05535868
0.19345474 -0.15856534 -0.20074457 0.17608643 -0.1829421 -0.102415524 0.052752994 -0.14316794
-0.1981911 0.11601773 -0.16670159 -0.052783553 0.20597115 -0.11886519 0.09965487 0.025148744
0.10359028 0.0880696 -0.04296944 -0.19364806 -0.11194401 -0.067415595 0.0021503076 0.104268864
0.23148203 0.0066616917 0.20333315 -0.050281882 0.15642011 0.04458849 0.027880829 0.16233477
-0.1697816 0.013842281 -0.16218114 -0.08484603 -0.116492204 0.061646704 0.05709736 -0.20404619
-0.20050897 -0.077817544 0.020109938 -0.04347951 -0.0002937685 0.17933889 0.17765956 -0.20368756
-0.20145157 -0.047197834 -0.05499106 -0.14506942 0.12130949 0.049087718 0.18995474 -0.19413748
-0.032069042 0.073621094 -0.030869795 -0.14407931 -0.05497116 0.07230204 0.187663 0.21588817
0.00047710125 -0.14181507 0.07606816 -0.007945911 0.1542641 0.09607529 0.14220566 -0.143041
0.19613764 -0.12249567 0.067864254 -0.01703937 -0.12501761 0.18562153 -0.11058408 -0.0222722
0.16151111 -0.18462922 0.18910347 -0.2237702 -0.13079174 0.17706986 -0.105087005 0.003478804
0.18971781 -0.20633039 -0.20278348 -0.14869595 -0.21124059 -0.111723945 -0.061336998 0.038917065
-0.19006811 -0.1170549 -0.21114048 -0.110330425 0.18810068 -0.029432345 -0.07072608 -0.122358255
0.19541648 0.010801867 0.09766598 -0.03027007 -0.030426744 -0.008928579 -0.050356355 0.013630092
-0.042473152 0.20295848 0.003948748 0.06585287 -0.21809411 -0.078854874 0.17573875 -0.0053908024
0.08016838 0.21299858 0.12748286 -0.17956007 0.06854453 -0.20891699 -0.08835966 -0.2009805
-0.09335788 -0.20316494 0.11862543 -0.18314709 0.11252804 0.004717589 -0.031674787 -0.16250086
0.022024594 0.035297036 -0.21114863 -0.22322036 -0.1290511 0.14018132 0.16310991 0.0037226733
0.11884608 0.19628924 -0.10796802 -0.12311543 0.17579314 -0.11780615 -0.010232772 -0.024089143
-0.094265416 -0.2144947 0.0763469 -0.09396481 0.042400144 0.034910917 -0.17587198 0.0305784
-0.084968306 0.1995702 -0.04239881 0.033361975 -0.21019173 -0.20535026 -0.04275702 0.021779997
0.10017118 -0.18081744 -0.005506434 0.19145542 -0.09726503 0.08400677 -0.16512951 -0.026402377
0.19650462 -0.22001043 0.05445795 0.10977726 -0.066967495 -0.03448257 -0.1296536 0.1876471
-0.03345941 -0.13194755 -0.2001493 0.09270976 -0.21219769 0.03654273 -0.0741545 -0.064338185

arith.constant6 f4 [128, 128]
00000000: f592 39bd b06f c33d 72ae 50bd 9a69 b43d
00000010: 44f2 fc3d f311 1b3e ad08 ac3d 061e 9cbd
00000020: b3da fd3d 8a8c cc3d c294 b23d e195 043e
00000030: daa0 063e 87fc 2e3d c937 083b 12cb febd
00000040: 8472 0c3d 9471 dabd d51a adbd 5e25 bcbd
00000050: 750a 5abd ef71 a93a bdaa 823d c9a2 cd39
00000060: f98a 93bd abdf ef3c 3d5c cd3b 1a18 81bc
00000070: a1bc 073d 00ce 843c 1c8a d5bd 7181 453d
00000080: 02ac 8ebd c0d5 6abd d60f 07be f161 a53c
00000090: ab92 eb3d 8a24 d8bd 333b 273b 36b5 8e3d
000000a0: 0348 2b3e bdc2 9f3d acbb 83bd f0a4 7d3d
000000b0: e503 d8bc 41bf c53d 83d1 10bd 704e f03c
000000c0: c969 4cbd 2705 1f3e 227b b33c c0e6 d63d
000000d0: e020 223c 6bd2 15be 0551 c0ba c459 1e3e
000000e0: 2777 4bbd 739e a83c 7ad9 f2bc f5fa 043e
000000f0: cb33 98bd e3fd 1a3e 9546 8abd 929e 073d
00000100: d25b ebbd dd47 0f3e 28e8 9dbc e157 8d3d
00000110: 536e 253d 658a a5bd 8a94 f6bd e81a cebd
00000120: 3d00 1e3e f81f 913d 32d4 6c3d d714 d3bd
00000130: 6399 2a3d 59d8 123e ecf2 08be db90 1f3c
00000140: a797 943d 3146 fe3d eeae b13d efc3 3f3d
00000150: 8859 76bc 3dd3 11be d0d8 033e cae2 d23d
00000160: dcdb a13c 3524 01be d1bd eebd 2193 84bd
00000170: 06b5 1f3e 2674 16bd bef9 ea3c 2f45 8dbd
00000180: 5c22 f63d d2d5 c83d dad5 96bd ff2d 87bd
00000190: 243b 02be 36d3 be3c 4302 9ebd 20fc 0f3e
000001a0: 7d45 ac3c 11ae 363d dc94 253e 0e8f 023d
000001b0: 563d 13be b583 95bd dff0 c1bd 6a02 933d
000001c0: 860f c9bd c255 f03d d549 093e cd02 de3d
000001d0: 7e76 1d3e fe77 92bd 5f01 3d3d 01bc 013e
000001e0: 15b4 223e 5a1e fb3d 87fa be3d 63f5 2c3d
000001f0: d9b1 073d d81a ebbc 5811 debc 7098 1abd
00000200: 520d f8bd 6b54 b7bd c5a1 edbd bc9d 0bbd
00000210: c0d7 ac3c 45a7 eabd 280e 92bc e29a a63d
00000220: 8f1c efbd d8e8 bbbc 9fb6 f4bd cfcc 083e
00000230: 0cfe 8b3d a8e8 19bd 6ee9 983d 2049 4ebd
00000240: f299 04bd c8b8 82bc 553a e7bd cc8e 40bd
00000250: ad0e 92bd 9b9f 093e 2e6b b83d d43c 18be
00000260: 37d6 103e d5ab 1bbe f6da 72bd 3614 f03d
00000270: 988e 0dbd 3a6f ccbd 4435 56bd 5390 1cbe
00000280: 1ecd f9bd f095 47bc a8a7 9fbc 5d2b 163e
00000290: 9c4a 743d 4d00 083e f03b 30bc 9c9c 9f3d
000002a0: 921c cb3d 9496 c1bd 5ea4 05be 181d f93c
000002b0: 165d 06be 3332 0c3e efca bfbd 277d a7bd
000002c0: 9060 543d 2674 05bd 7208 fc3d 6815 04bd
000002d0: e8dc 823d e8b2 9c3c b5bf 113e 946c 383d
000002e0: 7a8a f63d b0ff bb3d cfa0 013e c83a c9bd
000002f0: caa2 9dbd 60c0 7cbc 9663 fe3d b0ee 523c
00000300: ce8f cdbd 20bc 5fbc 261f b6bd aab6 24bd
00000310: 265f d73d acf1 1abe 72ac cc3d a31b 1b3e
00000320: 77b5 13be 59e4 133e 046c 8bbd 37d0 f1bd
00000330: cee8 d63d 9020 b83d 8211 e8bd 28f7 a0bc
00000340: f059 b0bc 00dd 323d 9849 0e3d 2c18 ccbd
00000350: a071 8bbc 3e6d b03d 553c 00be aa8e c23d
00000360: 9c0c 3abd e0db 03be e023 6dbc 15c4 8bbd
00000370: 7ea1 f63d afb2 06be 8a2d ef3d c5a6 123e
00000380: 6694 da3d 7845 d9bc a8f8 cfbd 9062 043d
00000390: 14fd bcbd fc9c c1bd 50cc 8f3c 10a4 b93d
000003a0: 08b8 aabc 7625 f13d 1c8a fbbc 050e 193e
000003b0: bcfe 853d 78af 4ebd ba28 6bbd a0e3 693c
000003c0: 00d1 5cba 3af7 be3d 8d67 17be 184d 9f3c
000003d0: b084 19bc 2230 c8bd 1d21 143e d5d9 1b3e
000003e0: 32fe e1bd a3ce dbbd 02f8 53bd 0040 adbc
000003f0: fa50 62bd a40f 61bd f670 bcbd 2020 a33c
-0.045306165 0.09542787 -0.050947614 0.088092044 0.12350896 0.15143566 0.08400092 -0.07622914
0.12395229 0.09987743 0.087197796 0.129478 0.13147298 0.042721298 0.0020785204 -0.12441076
0.034288898 -0.106661946 -0.084523834 -0.09186815 -0.05323263 0.0012927632 0.06380222 0.0003922193
-0.07204241 0.029281458 0.006267099 -0.015758563 0.033138875 0.01621151 -0.10426733 0.048219148
-0.06966402 -0.057332754 -0.13189635 0.020188304 0.11502584 -0.10553844 0.0025517463 0.06968157
0.16726689 0.07800815 -0.0643228 0.061924875 -0.026369045 0.096556194 -0.035356056 0.029334277
-0.049905572 0.15529309 0.0219093 0.10493231 0.009895533 -0.1463105 -0.0014672583 0.1546393
-0.04967418 0.020583367 -0.029644717 0.12986358 -0.07431754 0.15135913 -0.06751744 0.03311021
-0.11492123 0.13992257 -0.01927574 0.06901527 0.040388416 -0.08083037 -0.1204005 -0.10063726
0.15429778 0.07086176 0.057819553 -0.10306709 0.041650187 0.14340343 -0.13373917 0.009739126
0.07255488 0.12415732 0.08675943 0.046817716 -0.015035994 -0.14240737 0.12875676 0.10297163
0.019758157 -0.12611468 -0.11657298 -0.06473375 0.15596399 -0.03673186 0.02868354 -0.06897961
0.12018272 0.09806408 -0.07365008 -0.0660057 -0.12717873 0.023294073 -0.07715275 0.14061022
0.021029228 0.044599596 0.16170067 0.03187471 -0.14378867 -0.07300512 -0.09469771 0.07178195
-0.09817414 0.11735107 0.13407071 0.10840378 0.15377232 -0.07151793 0.046143886 0.12669374
0.15889008 0.122616485 0.09325128 0.042226207 0.033128593 -0.028699324 -0.02710788 -0.037743032
-0.12111916 -0.08951648 -0.11603121 -0.034085974 0.021098971 -0.114576854 -0.017829016 0.0813501
-0.11675369 -0.022938177 -0.11948895 0.13359378 0.06835565 -0.037575394 0.07466398 -0.050362706
-0.032373376 -0.015957251 -0.11290423 -0.04701118 -0.071317054 0.13439791 0.09004818 -0.14866954
0.14144216 -0.15202267 -0.05929085 0.11722605 -0.034559816 -0.09982152 -0.05229689 -0.1528943
-0.12197326 -0.012181744 -0.019489124 0.1466498 0.059641466 0.13281365 -0.010756478 0.07793543
0.09917559 -0.094525486 -0.13050982 0.03040938 -0.13121447 0.13691024 -0.093648784 -0.08178168
0.0518499 -0.03258147 0.12306298 -0.032246977 0.06389791 0.019128278 0.14233287 0.045025423
0.12038131 0.09179628 0.12659 -0.09825665 -0.07697065 -0.015426725 0.12421338 0.01287429
-0.10037194 -0.013655692 -0.0889266 -0.040213265 0.10516195 -0.15131253 0.09993829 0.15147261
-0.14424692 0.14442576 -0.06807712 -0.11807292 0.10493623 0.08990586 -0.11331464 -0.019649103
-0.02152726 0.043667793 0.034738153 -0.09965548 -0.017021954 0.08614586 -0.12523015 0.09499867
-0.04542218 -0.12876844 -0.014473885 -0.06824509 0.12042521 -0.131541 0.11678608 0.1432143
0.10672836 -0.026522383 -0.10154849 0.03232056 -0.09227958 -0.094537705 0.017553478 0.090644956
-0.020839706 0.11774723 -0.030705504 0.14946754 0.06542727 -0.05046031 -0.057411887 0.014275461
-0.00084234774 0.093244985 -0.14785595 0.01944594 -0.009370014 -0.097748056 0.14465757 0.15219815
-0.11034812 -0.10732772 -0.05175019 -0.021148682 -0.055253007 -0.054946557 -0.09201233 0.01991278

arith.constant7 f4 [128]
00000000: 70b6 783c 0000 0000 c411 afbb 4871 7d3c
00000010: cf04 393c 7fa5 ebbb 7860 5bbc 4771 7b3c
00000020: 6f37 7fbc 36a8 f1bb cdbe c4bb 190d 753c
00000030: 60f5 53bc cdab 7e3c 6b34 7e3c d531 0dbc
00000040: 84a7 1dbb 62d9 743c ff7b 23b9 fbd3 763c
00000050: 67ec 5ebc ca25 823c 0000 0000 3394 6fbc
00000060: 0000 0000 cc2b 75bc 4367 63bc 0000 0000
00000070: df2a d0bb 39fa ad3b 57bb 6fbc b315 36bc
00000080: f577 613c b8e7 593c 4f74 743c da72 3a3c
00000090: e79f 0cbc ad1f f3bb 629c 7c3c c998 523c
000000a0: a934 d3bb 0000 0000 0000 0000 0000 0000
000000b0: f979 6ebc 43d0 693c 2833 7b3c 854a 22bc
000000c0: d435 833c 0000 0000 0000 0000 5664 6bbc
000000d0: e22e 753c 0000 0000 9fd8 313c 50db 5abc
000000e0: a7c3 c4bb 0000 0000 9702 b6bb df12 7b3c
000000f0: 8cc5 c4bb b166 71bc 7cd7 6bbc b7c2 7c3c
00000100: 3668 0a3c 9800 8c3c 48a6 06bc 5e95 763c
00000110: 0000 0000 b6fd debb 7a6a 773c 93be 66bc
00000120: 262d 44bc b886 c53b efa1 423c 7fa0 7abc
00000130: 168c 733c 0000 0000 dcae 5bbc c98f dbbb
00000140: 99af 2ebc 7e70 823c 92c1 7f3c 58a8 0abc
00000150: 6ea6 09bc 643c 8c3c 13c2 c4bb 0000 0000
00000160: 4e2a 883c ed0d 5dbc f106 793c 0000 0000
00000170: 9dcf 663c 0000 0000 ece0 8c3c 2847 783c
00000180: 4420 0abc 72e0 343c 4c73 6bbc 34b7 6fbc
00000190: 1b4c c4bb a85d 303c 0000 0000 fc3c 28bc
000001a0: c559 01bc 0000 0000 3108 57bc 5e15 6ebc
000001b0: 89a5 7f3c 0000 0000 d678 723c 59f9 15bc
000001c0: c5b5 0dbc 7bdd 76bc cec6 c4bb 751b afbb
000001d0: 2fcb 753c 0000 0000 cb2d 733c 4f64 5abc
000001e0: 0000 0000 1e4d 3f3c ff21 743c 7ba4 70bc
000001f0: 3a56 893c e0f1 f4bb b61d 623c 404c 5d3c
0.015180215 0.0 -0.005342694 0.015468903 0.01129265 -0.0071913595 -0.013389699 0.015346832
-0.015577181 -0.0073747886 -0.0060041905 0.014956736 -0.01293692 0.01554389 0.015515427 -0.008617838
-0.0024056146 0.014944406 -0.00015591084 0.0150651885 -0.013606167 0.01588716 0.0 -0.014622736
0.0 -0.014964055 -0.0138796 0.0 -0.006352767 0.00530937 -0.014632068 -0.011113572
0.01376151 0.013299875 0.014920308 0.011379922 -0.008583046 -0.0074195475 0.015418144 0.01285381
-0.0064454866 0.0 0.0 0.0 -0.014555448 0.014270845 0.015332021 -0.009905462
0.016016878 0.0 0.0 -0.014367184 0.014964791 0.0 0.010854869 -0.013357952
-0.006004769 0.0 -0.005554508 0.015324323 -0.0060049947 -0.014733956 -0.014394637 0.015427283
0.008447697 0.017090127 -0.0082183555 0.01505026 0.0 -0.006805147 0.01510107 -0.014083522
-0.011973655 0.0060280226 0.011879428 -0.015297054 0.014864942 0.0 -0.013408389 -0.00670049
-0.010661983 0.015922781 0.015610116 -0.008462988 -0.008401496 0.01711864 -0.0060045808 0.0
0.016621735 -0.01349209 0.015199409 0.0 0.014087585 0.0 0.017197095 0.015153684
-0.008430544 0.01103984 -0.014370751 -0.014631081 -0.005990518 0.010764517 0.0 -0.010268446
-0.007894938 0.0 -0.013124512 -0.0145314615 0.0156034315 0.0 0.014799317 -0.009153687
-0.008649294 -0.0150674535 -0.0060051447 -0.0053438493 0.015002056 0.0 0.014842461 -0.0133295795
0.0 0.011676101 0.014900683 -0.014687653 0.016764749 -0.007475123 0.013801029 0.013506949

arith.constant8 f4 [3]
00000000: 7254 733c 1395 6fbc 8625 76bc
0.014851676 -0.014622944 -0.015023595

sequential_1/conv2d_1/Relu;sequential_1/conv2d_1/add;sequential_1/conv2d_1/convolution; f4 [32, 3, 3, 3]
00000000: 1105 2539 00e1 80b9 abbe 9f39 2751 d4b7
00000010: 940e ed39 c402 0cb7 48b9 a839 fa8f fc39
00000020: bd4c 5738 0486 7839 b109 e339 a12a 81b9
00000030: 0538 4f39 97e3 2db9 1d3a c338 0bce c338
00000040: 1189 0b3a 4ab7 e139 1dad c8b9 7de1 3b39
00000050: 4b0d b139 dc38 0d3a 066b df39 2608 9439
00000060: c061 123a 4095 b338 8766 133a 0fe8 9439
00000070: 8bc2 1eb8 006d d1b9 74d1 72b9 7114 30b8
00000080: 8f11 c7b9 e6a2 28b9 51be 1bb9 4bda 0dba
00000090: 1402 09ba f827 a1b8 f0b6 07b9 be9b 03ba
000000a0: 137f c939 40cc 79b8 728e dd39 d0a1 fab8
000000b0: 2644 a037 e891 0cba 8569 0fba d065 fb39
000000c0: 2437 91b9 ac26 8f38 af60 9738 20a5 0ab9
000000d0: debe ff39 1646 23b8 b170 edb9 a634 0039
000000e0: 7ca6 c0b9 4d25 1ab9 d746 7eb9 addb fbb9
000000f0: b4dd 21b9 5449 9fb9 6dfc a039 cd80 9f39
00000100: 8982 043a d054 a6b9 c655 abb9 e8fb a0b9
00000110: d3b2 07b9 ec74 49b9 cd6a e4b9 080b 9438
00000120: ca23 89b9 e395 af38 8484 3e39 a3ac 3db9
00000130: a9a1 d5b9 a8c0 c239 73cf 7139 e6ee 7239
00000140: 25cd 8a39 09bf d239 038b 6db7 890b f839
00000150: 0278 6639 bef4 16b8 d771 023a f770 91b9
00000160: 7a03 d539 4340 a3b9 9c67 9e39 8845 cdb9
00000170: c5bb 3b39 bb65 143a 4c15 3439 c771 6b39
00000180: 8531 a739 a7dd 1ab9 ae5f f139 8333 df39
00000190: c0da f339 78cd d7b9 a23f 8439 e6bd cdb9
000001a0: e58f 7c39 6d14 81b8 c87c 9439 5dbb ca39
000001b0: 5c36 84b9 242c 9039 6b85 9d39 15e0 0a3a
000001c0: 5f6e 093a 00fb e3b6 b6bb 4938 ebf2 92b9
000001d0: abd4 fe39 477a 0239 a5bd d3b7 59d8 fbb6
000001e0: b83d a439 efcd 4339 e0a5 d937 7d46 edb9
000001f0: 7ef1 8938 e05b 8f39 b547 7e39 bb96 46b8
00000200: f029 8338 37dc ff39 ebbb 033a a042 0439
00000210: 4c2f c637 f338 40b9 66a7 aab9 8067 79b9
00000220: 2fa1 2939 e1b7 1ab9 6bb5 e3b9 fc77 89b9
00000230: 29f2 2ab8 220a 7439 6bc9 063a 4c07 a5b9
00000240: 547f d8b9 b53b b538 2454 e6b7 ea7d f7b9
00000250: 26f7 2d39 08b1 8e38 6598 fe39 1c7b 5439
00000260: 0673 a4b9 2b0a 4438 6dfd b339 3cb6 eb39
00000270: e1d6 b239 a7dd c2b9 034b 9c39 15e5 e839
00000280: a7ba 0f39 3448 5739 9f40 d839 c1b9 bab9
00000290: 7be4 a1b9 9401 7139 8e63 3c38 2739 adb9
000002a0: 839c 9539 aea7 ed39 9361 7fb8 4e64 3939
000002b0: ff98 6039 2254 cd39 61af fcb9 0e52 0439
000002c0: ebbe a6b7 fe94 e539 8fc5 5a39 b6f9 43b8
000002d0: 3b04 eb38 5e3e 0139 bb4e e3b9 2c16 c739
000002e0: 86d6 12b9 8dae 7139 2f27 cab9 d14e abb8
000002f0: 34c8 82b8 92ca 0c3a eb0b 2d39 7925 92b9
00000300: 5b51 173a 280c 0c39 aaa0 a839 df8c 8439
00000310: 151e c139 1c08 f4b9 7c25 a0b9 82c2 6d39
00000320: 45ea 6538 4dd3 3eb9 6196 133a f764 8fb8
00000330: b081 3e39 ef81 ba39 36f0 d2b9 a162 0739
00000340: 601f 71b9 c05f e439 502a ceb8 dd36 64b9
00000350: 0166 13b9 76a6 b0b9 6970 edb9 f7fc eb39
00000360: d33f c839 f4a1 3c38 42bb c939 a3ee 073a
00000370: e4d5 93b8 4d20 4f39 dfc6 0e3a dfcc e239
00000380: f85e 5fb9 0038 133a ee63 e339 0a54 b939
00000390: 10a0 0a3a f31d 85b8 a784 6239 fe18 f2b9
000003a0: 50e9 08b9 2493 a939 12e3 3537 df5b 54b9
000003b0: b9a9 e8b9 3f60 32b7 9fe9 e6b9 5ca5 f5b9
000003c0: 9741 edb9 7c77 0d3a 69bd 0aba 7052 9c39
000003d0: 476d af39 d025 a837 e5ee 6239 c40a 043a
000003e0: 73d0 c439 ef9c ad39 f4f8 12b9 5e31 f4b7
000003f0: 097d 31b8 aacf 8ab9 6170 2ab9 121d 113a
0.00015737514 -0.000245817 0.00030468902 -2.5310159e-05 0.00045215024 -8.345294e-06 0.00032181502 0.00048172456
5.1331463e-05 0.00023701048 0.00043304035 -0.00024636558 0.00019761927 -0.0001658335 9.309149e-05 9.336703e-05
0.00053228537 0.00043051905 -0.00038275952 0.0001791771 0.00033769975 0.0005387196 0.00042613613 0.0002823483
0.0005584024 8.563185e-05 0.0005622883 0.00028401657 -3.7851318e-05 -0.00039944798 -0.00023156946 -4.1980707e-05
-0.0003796932 -0.00016082413 -0.0001485285 -0.00054112513 -0.0005226445 -7.684523e-05 -0.00012942753 -0.0005020461
0.00038432385 -5.955645e-05 0.00042258535 -0.00011951069 1.910522e-05 -0.0005362318 -0.0005470741 0.00047950307
-0.00027697638 6.8259746e-05 7.21825e-05 -0.0001322222 0.00048779597 -3.89275e-05 -0.00045288124 0.00012226644
-0.00036745134 -0.0001470048 -0.00024249718 -0.00048038122 -0.00015436747 -0.00030381477 0.0003070565 0.00030422807
0.00050548516 -0.00031725178 -0.00032679568 -0.00030705263 -0.0001294122 -0.0001921241 -0.00043567122 7.059245e-05
-0.0002615734 8.372569e-05 0.00018169178 -0.00018088757 -0.00040746972 0.00037146104 0.00023060832 0.00023167915
0.00026474256 0.00040196654 -1.4158667e-05 0.0004731084 0.00021979216 -3.599072e-05 0.000497607 -0.0002774072
0.00040629116 -0.0003113766 0.00030213303 -0.00039152452 0.0001790366 0.0005660911 0.00017174071 0.00022453732
0.00031889617 -0.00014769156 0.0004603839 0.00042572254 0.00046511553 -0.00041161082 0.00025224412 -0.00039242132
0.00024086198 -6.155004e-05 0.0002832173 0.0003866804 -0.00025217503 0.00027498708 0.00030044778 0.0005297673
0.0005242582 -6.7943474e-06 4.8096954e-05 -0.00028028278 0.00048605105 0.00012443318 -2.524147e-05 -7.505569e-06
0.00031326502 0.00018673365 2.5945657e-05 -0.0004525668 6.5776505e-05 0.00027343538 0.0002425004 -4.7347257e-05
6.254378e-05 0.00048801463 0.00050252554 0.0001261332 2.3625464e-05 -0.00018331762 -0.00032549648 -0.00023785047
0.00016177142 -0.00014755085 -0.0004343198 -0.00026220072 -4.0756688e-05 0.00023273428 0.0005141708 -0.0003147669
-0.00041293597 8.641874e-05 -2.7457318e-05 -0.00047205325 0.00016590636 6.804062e-05 0.00048560198 0.00020263757
-0.00031366217 4.673951e-05 0.00034330357 0.00044958468 0.00034110903 -0.00037167707 0.00029810527 0.00044421168
0.00013707076 0.00020530896 0.00041246877 -0.00035615082 -0.00030878544 0.00022984139 4.491541e-05 -0.00033039713
0.00028536105 0.00045329094 -6.088761e-05 0.00017680341 0.000214193 0.0003916333 -0.00048195853 0.00012619069
-1.9877645e-05 0.00043789292 0.00020863696 -4.6724184e-05 0.00011206461 0.00012325632 -0.00043355473 0.00037972757
-0.00014003561 0.00023048576 -0.00038557636 -8.168596e-05 -6.236174e-05 0.00053707615 0.00016503005 -0.0002787521
0.0005772316 0.00013355969 0.0003216316 0.0002528196 0.00036834241 -0.0004654535 -0.00030545506 0.00022674541
5.4816035e-05 -0.00018198528 0.0005630013 -6.8375775e-05 0.00018168124 0.00035573493 -0.00040233292 0.00012911345
-0.00022995239 0.00043558888 -9.830727e-05 -0.00021764213 -0.00014057012 -0.0003369336 -0.00045287915 0.00045011166
0.00038194525 4.4973523e-05 0.00038477225 0.0005185401 -7.0493465e-05 0.00019753091 0.0005446504 0.0004325872
-0.00021302316 0.00056159496 0.00043371267 0.00035348564 0.00052881334 -6.347513e-05 0.00021602456 -0.00046176458
-0.00013056886 0.0003234382 1.084131e-05 -0.0002025212 -0.00044376942 -1.0632036e-05 -0.0004404308 -0.00046853244
-0.0004525303 0.00053965277 -0.00052925065 0.0002981606 0.0003346002 2.0044768e-05 0.00021642035 0.00050370046
0.0003753934 0.00033114056 -0.00014016387 -2.9110055e-05 -4.2316537e-05 -0.00026476133 -0.00016254328 0.0005535643
